data/models/neural_model.pth (torch, 53948 bytes, 8 tensors)

layer1.weight f4 [128, 13]
0.068510294 -0.08356966 0.015022725 -0.21082479 -0.02904281 -0.09337762 -0.25114775 -0.19361085
0.077580154 -0.15085459 -0.23616412 -0.04330279 -0.11532183 -0.18696794 -0.0424396 0.09122345
0.23314773 0.20527522 0.12171871 -0.24970497 -0.23873404 0.05844431 -0.06399431 0.41711867
0.28492156 0.9915216 0.050378215 -0.019499399 0.032685444 0.3326598 0.117450796 0.113168575
0.07819728 0.26570013 -0.05912353 -0.09821725 0.10779494 -0.13081078 -1.2412385 0.22198065
0.11539576 -0.08714213 -0.33054817 -0.12541926 -0.38271937 -0.111211434 0.1308562 -0.2696835
0.1785179 -0.39928472 0.23269746 -0.13828668 0.08052873 -0.057909407 -0.24191077 -0.027943049
0.22632274 -0.19617936 -0.19082052 -0.09667823 -0.2581594 0.13575481 -0.28405207 -0.009838156
-0.2557037 -0.13319927 -0.11785489 -0.062376276 0.22840938 -0.043402344 -0.16485903 -0.09541917
-0.053826526 -0.16822335 0.06380728 -0.17600575 0.21769813 0.219008 -0.19099718 -0.025716007
0.23454514 -0.05890122 -0.13405506 0.13117534 -0.012925237 0.19718269 -0.1825977 -0.17654335
-0.18080461 -0.27173162 -0.20274132 0.102230266 -0.05260386 -0.04725513 -0.34042513 0.15175962
-0.20728984 -0.15465733 0.048374586 -0.24049453 -0.35413873 0.3415955 -0.10308981 0.7847956
0.3826645 0.42141813 0.13756645 -0.043265343 0.04542786 0.14341697 -0.15591748 0.2268399
-0.022648342 0.21592698 0.036526036 -0.32012433 -0.51999253 -0.11269487 0.12762362 -0.19153139
-0.06307559 -0.19916156 0.25924253 0.16899575 -0.08525973 -0.004209064 -0.23324132 0.61139923
0.30003884 0.6306555 0.11825805 -0.18764144 -0.13851446 0.017148433 0.20156606 0.05368115
-0.22239402 0.10935319 0.04492536 -0.16155003 -0.18221273 -0.26577485 -0.4975574 0.06946254
-0.19427177 0.2754362 -0.06968127 0.028500408 0.02118367 -0.21063566 -0.22440165 0.1176098
0.065543026 -0.15730515 0.05538389 0.032687634 0.39126194 0.317432 -0.07270402 0.04008039
-0.13860011 -0.21027176 -0.052185033 0.09193919 0.21581106 0.12318647 0.17136766 -0.057435997
-1.1999583 -0.3052628 -0.17029604 0.17922506 0.3394909 0.25648808 -0.0987516 -0.19973877
0.07540262 -0.048431903 0.1850253 0.59300494 -0.21113583 0.74847704 0.0728359 0.056419406
-0.050967827 -0.20195097 -0.028076377 0.29003406 -0.11435113 0.18225923 -0.0952847 0.1262499
0.0149858035 0.12648462 -1.1846344 -0.3091252 0.118169144 0.044083714 -0.284926 -0.14675093
0.10008041 0.10091303 -0.026309108 -0.0015909465 0.04160807 -0.12413889 -0.08507797 -0.54451513
-0.00085885247 -0.004248266 -0.27727854 0.00776927 -0.11588788 0.10764589 -0.18597868 0.03760295
-0.07190298 -0.20086429 0.069774225 0.15892233 -0.4834948 -0.21417479 -0.4237359 -0.063317634
-0.3115 0.29921886 -0.32261032 0.2473038 -0.43041712 -0.15746054 0.12526046 0.34823263
0.14168297 0.41487482 -0.25990894 0.03898874 0.09239575 -0.09162718 -0.12568669 -0.25585067
-0.24293143 -0.173272 -0.093874484 0.008725971 -0.2731399 0.078700215 0.15765554 0.23308368
0.30152336 0.049423706 -0.14817734 -0.19934839 0.0049120365 -0.21506867 0.24187835 0.12986116
00000000: 204f 8c3d 9226 abbd e021 763c 74e2 57be
00000010: 30eb edbc c43c bfbd 7096 80be ec41 46be
00000020: 58e2 9e3d a079 1abe 02d5 71be 445e 31bd
00000030: da2d ecbd 8674 3fbe 25d5 2dbd 5cd3 ba3d
00000040: 47be 6e3e ab33 523e a947 f93d a9b2 7fbe
00000050: b276 74be 4d63 6f3d 730f 83bd 9490 d53e
00000060: 3de1 913e 5cd4 7d3f 6359 4e3d 34bd 9fbc
00000070: 2ce1 053d 6352 aa3e 0b8a f03d edc4 e73d
00000080: e525 a03d d909 883e 842b 72bd 2026 c9bd
00000090: 98c3 dc3d 43f3 05be e7e0 9ebf e54e 633e
000000a0: 9d54 ec3d 9377 b2bd 9c3d a9be e86d 00be
000000b0: cbf3 c3be d2c2 e3bd 2bff 053e f513 8abe
000000c0: 65cd 363e 0c6f ccbe 3e48 6e3e 069b 0dbe
000000d0: 3fec a43d 6a32 6dbd 75b7 77be d2e8 e4bc
000000e0: 26c1 673e 3ee3 48be 7466 43be 3cff c5bd
000000f0: 782d 84be 4f03 0b3e 466f 91be 3830 21bc
00000100: 98eb 82be 6465 08be e85d f1bd 447e 7fbd
00000110: 26e4 693e a8c6 31bd ced0 28be 206b c3bd
00000120: 3479 5cbd be42 2cbe 64ad 823d da3a 34be
00000130: 42ec 5e3e a243 603e c494 43be 60aa d2bc
00000140: 9a2c 703e 6842 71bd bb45 09be d452 063e
00000150: 60c4 53bc 42ea 493e e4fa 3abe c8c7 34be
00000160: d824 39be 6820 8bbe 6c9b 4fbe 1a5e d13d
00000170: 2577 57bd 988e 41bd 344c aebe e066 1b3e
00000180: ca43 54be 7e5e 1ebe 6e24 463d 3344 76be
00000190: ac51 b5be 9be5 ae3e c020 d3bd 5de8 483f
000001a0: 9aec c33e 1ec4 d73e 38de 0c3e 0037 31bd
000001b0: 9012 3a3d e6db 123e d5a8 1fbe b848 683e
000001c0: 0489 b9bc f61b 5d3e 539c 153d 56e7 a3be
000001d0: 3b1e 05bf 91cc e6bd c4af 023e ce20 44be
000001e0: c62d 81bd 02f1 4bbe 70bb 843e 390d 2d3e
000001f0: a79c aebd 30ec 89bb d0d6 6ebe a984 1c3f
00000200: b19e 993e a472 213f 4731 f23d 1425 40be
00000210: bcd6 0dbe df7a 8c3c 5567 4e3e c4e0 5b3d
00000220: 42bb 63be 91f4 df3d a703 383d 5f6d 25be
00000230: f995 3abe a413 88be d8bf febe 6042 8e3d
00000240: 2eef 46be f905 8d3e 0eb5 8ebd b079 e93c
00000250: 6089 ad3c e0b0 57be 8cc9 65be 68dd f03d
00000260: 6c3b 863d 9a14 21be 38da 623d 78e3 053d
00000270: 7c53 c83e 7286 a23e d8e5 94bd 562b 243d
00000280: 30ed 0dbe 7b51 57be f9bf 55bd 9d4a bc3d
00000290: 93fd 5c3e 3049 fc3d 017b 2f3e 0242 6bbd
000002a0: 3c98 99bf 684b 9cbe 1662 2ebe c686 373e
000002b0: c0d1 ad3e 6852 833e 473e cabd 5288 4cbe
000002c0: b06c 9a3d 8860 46bd 4677 3d3e 2ccf 173f
000002d0: fe33 58be 319c 3f3f fd2a 953d 0918 673d
000002e0: a4c3 50bd 3ccc 4ebe 6e00 e6bc 587f 943e
000002f0: ed30 eabd 2aa2 3a3e a024 c3bd a747 013e
00000300: 0487 753c 2f85 013e 1aa2 97bf a945 9ebe
00000310: aa02 f23d 2091 343d d2e1 91be e045 16be
00000320: f5f6 cc3d 7eab ce3d 3386 d7bc 4e87 d0ba
00000330: 396d 2a3d 883c febd 5c3d aebd 5865 0bbf
00000340: 9d24 61ba 0a35 8bbb 74f7 8dbe 5c95 fe3b
00000350: a056 edbd 7375 dc3d 3271 3ebe 8d05 1a3d
00000360: df41 93bd 5eaf 4dbe cae5 8e3d 89bc 223e
00000370: a18c f7be a350 5bbe e9f3 d8be adac 81bd
00000380: ee7c 9fbe 3733 993e 2e2d a5be 353d 7d3e
00000390: a25f dcbe 563d 21be 4744 003e 8c4b b23e
000003a0: 5715 113e 796a d43e c912 85be a8b2 1f3d
000003b0: fc39 bd3d 08a7 bbbd 03b4 00be dcfe 82be
000003c0: 04c3 78be 376e 31be 4441 c0bd 60f7 0e3c
000003d0: fed8 8bbe 942d a13d 7470 213e 7dad 6e3e
000003e0: 4561 9a3e 8370 4a3d cdbb 17be fc21 4cbe
000003f0: 26f5 a03b f63a 5cbe f5ae 773e 53fa 043e

layer1.bias f4 [128]
0.084308684 -0.22330125 -0.02319229 0.35919252 0.12547435 -0.15390068 -0.23758009 -0.00077336904
-0.10320936 -0.2893279 0.10541512 -0.23277462 -0.04337132 -0.29414797 0.19090788 0.16866946
0.031424128 -0.029300472 -0.2400724 0.16075234 -0.15302518 -0.059567407 0.30068976 -0.26948768
0.24877 -0.054276705 0.30116734 -0.11990714 -0.15980661 0.26935983 -0.26017663 -0.16636775
0.32086498 -0.098775394 -0.22006118 0.017572477 -0.08608474 -0.11182918 -0.009077579 0.44902208
0.28598875 -0.11818751 -0.0819931 0.3650296 -0.31380916 -0.20557983 0.07373549 -0.07343888
-0.11091253 -0.05328241 -0.23979959 -0.23045893 0.00058551616 -0.5146944 0.27148154 -0.18838513
-0.21220732 0.21903645 -0.18572564 0.001953794 0.028248206 0.39685565 0.17349765 -0.2005144
0.31438836 0.14281408 0.43587974 0.2131019 -0.07358377 0.3140549 -0.101955876 -0.21877892
0.22241351 -0.018074006 0.457594 0.05606753 0.45009476 0.17651182 0.26881403 -0.09127836
-0.20514001 0.019446144 -0.13732764 -0.013301624 0.047646075 0.2078446 -0.11908311 -0.22008708
-0.074078515 -0.33877748 -0.21625566 -0.294309 -0.15981805 -0.48636895 0.3249785 0.20299757
0.22487475 -0.29534033 -0.18851222 0.29103258 -0.22849834 0.07600186 -0.051808015 0.11929048
-0.15758024 0.12294557 0.21913761 -0.42890593 -0.50511515 -0.39693275 0.17374521 0.24226905
-0.4412887 -0.20763592 -0.06824985 0.18073827 0.37265465 -0.26155594 -0.07260878 -0.20130552
-0.017066449 0.2736088 -0.18191479 -0.042240426 -0.2720757 -0.106381446 -0.09619586 -0.043244302
00000000: 08aa ac3d 15a9 64be c2fd bdbc 15e8 b73e
00000010: 597c 003e 2498 1dbe 3248 73be ebbb 4aba
00000020: 6e5f d3bd c922 94be e2e3 d73d 785c 6ebe
00000030: 20a6 31bd 909a 96be 5b7d 433e b0b7 2c3e
00000040: 96b6 003d 8b07 f0bc 8ad5 75be 439c 243e
00000050: a2b2 1cbe f4fc 73bd 02f4 993e 4afa 89be
00000060: 90bd 7e3e 4051 5ebd 9b32 9a3e e091 f5bd
00000070: 58a4 23be 88e9 893e df35 85be 4f5c 2abe
00000080: 6a48 a43e c14a cabd b857 61be 28f4 8f3c
00000090: 324d b0bd b206 e5bd 20ba 14bc 39e6 e53e
000000a0: 1e6d 923e 4b0c f2bd 00ec a7bd 29e5 ba3e
000000b0: 98ab a0be 8583 52be a202 973d 2067 96bd
000000c0: 1c26 e3bd a83e 5abd 068e 75be 6dfd 6bbe
000000d0: 537d 193a 03c3 03bf a1ff 8a3e 08e8 40be
000000e0: e04c 59be 174b 603e dd2e 3ebe 390b 003b
000000f0: c868 e73c aa30 cb3e 5ea9 313e a653 4dbe
00000100: 83f7 a03e db3d 123e a12b df3e 6237 5a3e
00000110: 16b3 96bd cecb a03e 3ece d0bd 9507 60be
00000120: 5ec0 633e f00f 94bc c349 ea3e 11a7 653d
00000130: d272 e63e 84bf 343e fea1 893e 26f0 babd
00000140: 3910 52be 854d 9f3c 9e9f 0cbe 0eef 59bc
00000150: 8828 433d 37d5 543e d8e1 f3bd 825e 61be
00000160: 7ab6 97bd 3e74 adbe 2072 5dbe abaf 96be
00000170: 58a7 23be 5a05 f9be 9563 a63e 98de 4f3e
00000180: 9145 663e d936 97be 5909 41be 3902 953e
00000190: 78fb 69be dda6 9b3d a434 54bd 914e f43d
000001a0: b75c 21be e3ca fb3d 9c65 603e 8f99 dbbe
000001b0: 3a4f 01bf c53a cbbe 44ea 313e 6115 783e
000001c0: 98f0 e1be 839e 54be 94c6 8bbd 7413 393e
000001d0: 97cc be3e a9ea 85be e9b3 94bd 0923 4ebe
000001e0: f0ce 8bbc 7416 8c3e df47 3abe 4c04 2dbd
000001f0: 824d 8bbe 84de d9bd 5602 c5bd f020 31bd

layer2.weight f4 [64, 128]
0.06250348 -0.011486797 -0.055199027 -0.00145316 0.07794391 0.058157854 0.007104449 -0.090366066
-0.07476238 0.027845124 -0.020333478 0.01672899 0.017948074 -0.056536574 -0.050470583 -0.06017648
-0.024900893 0.011152295 0.049279593 0.034300003 -0.055484504 0.017270772 0.020177076 0.04551751
-0.039314684 0.06775575 -0.015003626 0.08099084 0.00073639303 -0.071039446 0.070621125 0.044463314
0.027652135 -0.08153951 0.023423992 -0.07614679 0.085442476 -0.0074263564 -0.062088788 0.03302021
0.070973806 -0.029855948 0.084318765 -0.11912263 -0.09023309 -0.042935383 -0.017200878 -0.10912813
0.02975166 -0.005001694 -0.04185182 -0.086362556 -0.034156196 -0.00069275004 0.035529166 -0.08159565
-0.06786421 0.04471334 -0.015460603 -0.09213375 0.0610807 0.049079157 0.033257842 -0.024925536
0.03291719 0.020579303 -0.08778808 0.041414667 -0.06227315 0.013745582 -0.00025569648 -0.016386962
-0.049878374 0.05279977 0.005112824 -0.09828756 0.017464442 0.05135303 -0.06488802 -0.05330457
0.029233703 0.007071937 0.08363583 0.0004204256 -0.07426344 -0.050343048 -0.031422835 -0.06082096
-0.106522046 -0.0795022 0.053158805 -0.044184815 0.02070894 0.059398588 0.03192003 0.058350917
-0.049560167 0.008582617 0.086395584 0.0049578086 -0.04784095 -0.09305454 0.058735482 0.05548483
0.025334187 -0.083108544 -0.079844944 0.036427137 -0.0037221222 -0.005331526 0.012406185 0.05567557
0.030518813 -0.03717413 0.0457657 0.023735287 -0.046103448 -0.06831141 -0.056817073 -0.039891623
-0.017586008 -0.04488778 0.020007223 0.020156026 0.005977668 0.04761646 -0.045447133 0.050573602
-0.012874901 -0.31142443 0.29194513 0.03922499 -0.019629337 -0.074350566 -0.079757 -0.1873902
0.039120134 -0.40699634 0.061167352 0.036642008 0.15542121 -0.4528842 0.25160703 0.10957548
0.17180106 -0.0035531768 0.04860986 0.22691816 0.09860352 0.19402547 0.380845 -0.02419404
-0.04359986 -0.08419455 0.0245553 -0.047564644 -0.03474522 0.13349311 -0.046345137 -0.028439306
0.03735185 -0.34830484 0.14931647 0.011570853 0.08482201 -0.04573124 -0.07473064 -0.097247116
0.1103842 0.12646051 0.055112697 0.2547641 -0.39487818 0.11859699 -0.16931309 -0.032958012
0.00076377566 -0.005132042 0.014192052 0.30874768 0.11985993 -0.13784447 0.1649609 0.1629821
-0.33687523 0.0250968 0.033934087 0.23000829 0.28050455 -0.14319156 0.01861522 -0.014707874
0.05108803 -0.048066754 -0.08536822 0.3984441 0.040967025 -0.06079698 0.059752934 -0.021525236
0.122049235 0.062675886 0.13566852 0.19972967 0.117991306 0.031202495 0.21310283 -0.33196345
0.010246473 0.121278726 -0.08230998 0.07798204 -0.059077237 0.15392809 0.008990124 0.05197818
0.08198229 -0.050493225 -0.34397373 -0.30304062 -0.03038418 -0.3246416 0.06412885 0.16082872
0.07620687 -0.39633048 -0.05908713 -0.001608758 -0.5400328 0.19990827 0.051517256 -0.07001226
-0.013616872 0.2949479 -0.011489558 -0.3114167 -0.34685946 -0.18069394 -0.5491734 -0.45117152
-0.31268397 0.010691032 0.18217409 0.2936461 0.10925135 -0.05429173 -0.28209466 0.043452375
-0.0289811 0.041274514 0.076902606 -0.00949499 -0.05864191 0.009780765 0.1899245 -0.06075168
00000000: d301 803d 1e33 3cbc 6018 62bd f577 beba
00000010: 0fa1 9f3d ee36 6e3d 70cc e83b d811 b9bd
00000020: 051d 99bd 751b e43c 6592 a6bc 3c0b 893c
00000030: d707 933c e592 67bd 3eba 4ebd 9d7b 76bd
00000040: f5fc cbbc 1eb8 363c 66d9 493d 297e 0c3d
00000050: b843 63bd 6f7b 8d3c 654a a53c 9270 3a3d
00000060: 6f08 21bd 87c3 8a3d c5d1 75bc 87de a53d
00000070: 800a 413a 217d 91bd cfa1 903d 2a1f 363d
00000080: bb86 e23c 30fe a6bd ace3 bf3c d9f2 9bbd
00000090: 77fc ae3d cb58 f3bb d050 7ebd 3340 073d
000000a0: b75a 913d 7694 f4bc 51af ac3d 91f6 f3bd
000000b0: 20cc b8bd 03dd 2fbd dbe8 8cbc 927e dfbd
000000c0: c1b9 f33c 40e5 a3bb d06c 2bbd dade b0bd
000000d0: 5ee7 0bbd ab99 35ba 0887 113d 9f1b a7bd
000000e0: 64fc 8abd 5625 373d 784e 7dbc 9fb0 bcbd
000000f0: c22f 7a3d 3a07 493d 6039 083d a330 ccbc
00000100: 2dd4 063d ed95 a83c 3dca b3bd 6da2 293d
00000110: 2112 7fbd 2635 613c 000f 86b9 f33d 86bc
00000120: 444d 4cbd 9244 583d 7a89 a73b fd4a c9bd
00000130: 9711 8f3c 8e57 523d 03e4 84bd e555 5abd
00000140: 857b ef3c b5bb e73b 4349 ab3d 926c dc39
00000150: 6e17 98bd 8334 4ebd 3bb5 00bd 661f 79bd
00000160: 3b28 dabd 0dd2 a2bd 0cbd 593d 23fb 34bd
00000170: cca5 a93c ef4b 733d 94be 023d 5f01 6f3d
00000180: 9aff 4abd 1b9e 0c3c 2bf0 b03d 1d75 a23b
00000190: dff4 43bd 6193 bebd 9e94 703d 1044 633d
000001a0: a489 cf3c d034 aabd bf85 a3bd 9f34 153d
000001b0: d9ee 73bb 15b4 aebb 5043 4b3c 110c 643d
000001c0: 9702 fa3c e743 18bd d174 3b3d 8170 c23c
000001d0: f8d6 3cbd dae6 8bbd 05b9 68bd 6665 23bd
000001e0: 8810 90bc 40dc 37bd 30e6 a33c 401e a53c
000001f0: 50e0 c33b 7a09 433d c626 3abd 4426 4f3d
00000200: 40f1 52bc 0673 9fbe d579 953e 62aa 203d
00000210: b4cd a0bc 1c45 98bd a357 a3bd 37e3 3fbe
00000220: 6f3c 203d d361 d0be 9e8a 7a3d ee15 163d
00000230: bd26 1f3e 70e0 e7be a3d2 803e 1c69 e03d
00000240: 9eec 2f3e 6adc 68bb 221b 473d 3c5d 683e
00000250: a4f0 c93d 9dae 463e 1efe c23e 9432 c6bc
00000260: c495 32bd 316e acbd 3228 c93c 25d3 42bd
00000270: 0151 0ebd 6bb2 083e 66d4 3dbd 8cf9 e8bc
00000280: 41fe 183d 0355 b2be 6be6 183e ad93 3d3c
00000290: 29b7 ad3d ae50 3bbd 610c 99bd 7f29 c7bd
000002a0: 1d11 e23d dd7e 013e dabd 613d 7170 823e
000002b0: 792d cabe fbe2 f23d 6960 2dbe fbfe 06bd
000002c0: 1e38 483a b02a a8bb c885 683c 2d14 9e3e
000002d0: 1f79 f53d 1a27 0dbe 83eb 283e c8e4 263e
000002e0: e97a acbe ce97 cd3c 78fe 0a3d 4b87 6b3e
000002f0: 4b9e 8f3e cfa0 12be f27e 983c 4bf9 70bc
00000300: af41 513d a5e1 44bd 89d5 aebd dd00 cc3e
00000310: 0acd 273d 4106 79bd 7ebf 743d b155 b0bc
00000320: f3f4 f93d 375c 803d b0ec 0a3e ef85 4c3e
00000330: 6da5 f13d 609c ff3c a137 5a3e 1df7 a9be
00000340: d3e0 273c fb60 f83d 2392 a8bd 0cb5 9f3d
00000350: f9fa 71bd 539f 1d3e 504b 133c 12e7 543d
00000360: 55e6 a73d fcd1 4ebd 531d b0be 2428 9bbe
00000370: 3ee8 f8bc 6c37 a6be fd55 833d 49b0 243e
00000380: 5912 9c3d d4eb cabe 5905 72bd f6dc d2ba
00000390: 973f 0abf c1b4 4c3e c203 533d 9662 8fbd
000003a0: 4d19 5fbc 6903 973e b33e 3cbc 0272 9fbe
000003b0: 9097 b1be d507 39be a196 0cbf f4ff e6be
000003c0: 1d18 a0be 7029 2f3c d88b 3a3e c858 963e
000003d0: 2cbf df3d 0161 5ebd b66e 90be 1efb 313d
000003e0: c669 edbc 770f 293d 1d7f 9d3d e090 1bbc
000003f0: 8032 70bd 803f 203c 917b 423e c1d6 78bd

layer2.bias f4 [64]
-0.090678096 -0.108199075 -0.043309778 -0.15081608 0.03260306 0.37013194 -0.13243437 -0.09061271
-0.12820031 -0.09655966 -0.040741157 0.26616898 -0.03949038 -0.26650643 -0.109438516 0.18094602
0.0014234866 -0.013935598 0.08084813 -0.021995883 -0.016972737 -0.1317313 0.11250202 -0.018774891
-0.014229585 0.012012093 0.14070077 -0.08017964 -0.08902341 -0.050395437 0.006499429 -0.1482515
-0.0013837545 -0.061851505 -0.062902175 -0.092041366 -0.001266726 -0.06892659 0.29159155 -0.13232854
-0.07301235 -0.03528741 -0.028841421 -0.12861942 0.26626512 0.048306685 -0.016235676 -0.00013425882
0.09530452 -0.07386476 0.1514564 0.24537711 -0.07127382 -0.115106076 -0.00329418 0.026434142
0.23247182 -0.029123416 0.035929188 -0.039072078 0.030543571 -0.084794074 0.29524657 -0.06029771
00000000: 70b5 b9bd 7a97 ddbd 9865 31bd 886f 1abe
00000010: c98a 053d ef81 bd3e e09c 07be 2893 b9bd
00000020: f146 03be 12c1 c5bd 33e0 26bd 4d47 883e
00000030: aac0 21bd 8873 88be 4d21 e0bd ea49 393e
00000040: 4994 ba3a 2252 64bc b493 a53d b630 b4bc
00000050: 690a 8bbc 92e4 06be 7667 e63d cdcd 99bc
00000060: 3523 69bc 5fce 443c dd13 103e 3935 a4bd
00000070: e851 b6bd 726b 4ebd 29f9 d43b 3ecf 17be
00000080: 195f b5ba 0158 7dbd dbd2 80bd 2f80 bcbd
00000090: 4508 a6ba 6229 8dbd 7d4b 953e 2281 07be
000000a0: 8087 95bd 8889 10bd d844 ecbc cfb4 03be
000000b0: e753 883e 3bdd 453d ae00 85bc d4c7 0cb9
000000c0: 042f c33d 6846 97bd 6317 1b3e 2344 7b3e
000000d0: 02f8 91bd bcbc ebbd 2be3 57bb 6a8c d83c
000000e0: 180d 6e3e 3b94 eebc 7c2a 133d 0b0a 20bd
000000f0: 8336 fa3c 84a8 adbd 8f2a 973e bbfa 76bd

layer3.weight f4 [32, 64]
0.03354278 0.042700298 0.10869269 -0.25981313 -0.2952696 0.14943805 -0.02614944 0.07574855
0.027621128 -0.11405238 -0.071118206 0.24112366 -0.166055 0.0048664953 0.018685753 0.04499332
-0.16969123 0.110299975 -0.20916873 -0.30714953 -0.17826633 -0.039160065 -0.32705846 -0.119037196
0.16244769 -0.13165282 0.3432889 -0.0076424824 -0.019668136 -0.16215248 0.013379899 -0.038419053
-0.03377238 0.1007829 -0.036796104 -0.057955667 0.083606444 0.11055589 0.5178873 -0.34312063
-0.05976951 -0.50189203 0.082554124 0.11505314 0.48450735 0.1288324 -0.17448893 0.08604555
-0.35416514 0.07814002 -0.15246177 -0.00912871 -0.22782731 -0.07060703 -0.1771504 0.05081164
0.35341018 -0.08189386 -0.08615222 0.015072641 0.12681061 0.023332158 0.17440578 0.11707054
0.06304718 -0.0028199407 0.16557279 0.017361628 -0.10662843 0.17664783 -0.036031935 0.05955854
0.101476 -0.02763698 0.12468047 -0.18075353 0.12672837 0.05733935 -0.11725681 -0.3492942
-0.0062664477 0.0835496 -0.07232907 -0.15097976 -0.14253156 0.09274349 -0.19973633 -0.044928465
-0.29040307 0.011988131 -0.47328913 -0.10831448 -0.09635464 -0.1708377 -0.10860775 0.0744
-0.061865516 -0.12193406 0.023892762 0.01190738 0.06743849 0.09294005 -0.23191428 -0.28681308
-0.029837618 -0.042674568 -0.05101509 0.08643048 -0.41043562 -0.49468896 -0.19026212 0.00026582193
-0.3478017 -0.08450767 -0.0024550222 -0.41448656 -0.06507561 0.07383178 -0.104005165 0.008631621
0.1137768 -0.23901631 -0.005997305 0.004538937 -0.12309498 0.03845175 -0.1114897 0.0093984
0.036880307 0.03802231 0.04199436 0.07519878 -0.25159326 -0.6313678 0.08562019 0.13185903
0.12954307 0.03279767 -0.02571857 -0.2173892 -0.007123218 0.45626038 0.05449049 -0.3432277
0.04620134 0.12335392 0.1514088 -0.24724485 -0.1055011 0.08492673 -0.19773556 -0.11269964
-0.18092833 0.030651623 -0.16342908 0.056418877 -0.03323124 -0.20367934 -0.085089125 0.49650037
0.06525611 -0.12277541 -0.12924622 0.026294835 0.04769009 0.6965848 -0.17948616 0.119079605
0.027209723 0.044227567 -0.073267035 -0.006188659 -0.10968734 -0.45560607 0.09274477 0.011679478
0.16665696 0.020892173 -0.13854381 -0.10983576 -0.06750757 0.3331892 0.21621892 -0.060266696
-0.2718132 0.051485483 0.13954566 0.09197056 -0.05231879 0.079428524 -0.16357683 -0.030387605
0.009220462 0.25345957 -0.039974425 -0.05784214 0.255637 0.17966989 0.020028416 -0.07477637
0.059206128 -0.18242118 0.10123144 0.22006202 0.356139 -0.28803045 0.09789392 0.19542322
0.22623388 0.124143325 0.4741873 0.35921565 0.20324722 -0.018831791 -0.12966958 0.3438271
0.13574539 -0.07922557 0.14103176 -0.053353187 -0.007830005 0.3329104 0.35570446 -0.16087808
0.14586781 -0.0046385997 -0.00041634127 -0.084983125 -0.14609118 -0.25342783 0.103815705 -0.0706963
-0.015748434 0.02318877 0.014848477 0.067302085 0.15348786 0.23997214 0.37849882 -0.13038681
0.2761165 -0.091596656 0.25343874 0.25227717 0.22047074 -0.33289415 0.26523882 0.12492444
0.2084217 0.29840907 0.20102747 0.007532146 0.032029156 -0.010984942 0.19764097 0.29124612
00000000: 2764 093d 82e6 2e3d 469a de3d 3a06 85be
00000010: 942d 97be 4a06 193e 5a37 d6bc 0e22 9b3d
00000020: b445 e23c 4b94 e9bd 6ca6 91bd 1fe9 763e
00000030: 520a 2abe 1f77 9f3b dd12 993c ea4a 383d
00000040: 8ac3 2dbe f4e4 e13d 5430 56be b442 9dbe
00000050: 738b 36be 4e66 20bd 3574 a7be c6c9 f3bd
00000060: b058 263e ffcf 06be 90c3 af3e ca6d fabb
00000070: 121f a1bc 4d0b 26be 5d37 5b3c 4c5d 1dbd
00000080: e854 0abd 4467 ce3d 83b7 16bd ec62 6dbd
00000090: db39 ab3d 206b e23d 4394 043f 82ad afbe
000000a0: e0d0 74bd ff7b 00bf 2312 a93d fba0 eb3d
000000b0: 5911 f83e a4ec 033e 3aad 32be a638 b03d
000000c0: 2255 b5be e007 a03d f01e 1cbe 9690 15bc
000000d0: 904b 69be 6b9a 90bd ea66 35be de1f 503d
000000e0: 2ef2 b43e f8b7 a7bd 9370 b0bd 3df3 763c
000000f0: a4da 013e 1523 bf3c 6e97 323e aec2 ef3d
00000100: e11e 813d c1ce 38bb ea8b 293e f939 8e3c
00000110: 0260 dabd 2be3 343e 3996 13bd a8f3 733d
00000120: a6d2 cf3d f366 e2bc 7958 ff3d 7417 39be
00000130: 15c5 013e abdc 6a3d 5724 f0bd b0d6 b2be
00000140: c656 cdbb 0d1c ab3d 4321 94bd 709a 1abe
00000150: cbf3 11be 4df0 bd3d ae87 4cbe e906 38bd
00000160: b6af 94be de69 443c f452 f2be fbd3 ddbd
00000170: 9555 c5bd 14f0 2ebe bd6d debd 075f 983d
00000180: b266 7dbd 90b8 f9bd c1ba c33c 2c17 433c
00000190: 311d 8a3d 5a57 be3d f07a 6dbe 2ad9 92be
000001a0: 056e f4bc 87cb 2ebd 33f5 50bd 7702 b13d
000001b0: 9e24 d2be df47 fdbe 13d4 42be 045e 8b39
000001c0: 1013 b2be 5b12 adbd 70e4 20bb 9537 d4be
000001d0: 5d46 85bd 1e35 973d a900 d5bd a46b 0d3c
000001e0: d003 e93d b1c0 74be 0a85 c4bb 5dbb 943b
000001f0: 3919 fcbd 957f 1d3d b654 e4bd bffb 193c
00000200: ce0f 173d 48bd 1b3d 4702 2c3d d101 9a3d
00000210: d5d0 80be 52a1 21bf a359 af3d 0e06 073e
00000220: f0a6 043e da56 063d c0af d2bc 469b 5ebe
00000230: e269 e9bb f69a e93e 6c31 5f3d 8bbb afbe
00000240: 9e3d 3d3d fba0 fc3d e90a 1b3e c12d 7dbe
00000250: f610 d8bd 11ee ad3d 317b 4abe 12cf e6bd
00000260: 4745 39be 1d19 fb3c f459 27be 7b17 673d
00000270: 7b1d 08bd 5191 50be 3543 aebd 4c35 fe3e
00000280: ffa4 853d ad71 fbbd 1f59 04be 4468 d73c
00000290: af56 433d 6253 323f 38cb 37be 02e0 f33d
000002a0: ede6 de3c f727 353d 070d 96bd 3cca cabb
000002b0: c2a3 e0bd 3345 e9be f8f0 bd3d 485b 3f3c
000002c0: 1fa8 2a3e 1026 ab3c 6ede 0dbe 92f1 e0bd
000002d0: 6941 8abd c697 aa3e 7e68 5d3e 36da 76bd
000002e0: 1a2b 8bbe 71e2 523d 0fe5 0e3e 105b bc3d
000002f0: 3a4c 56bd 6cab a23d af80 27be 6def f8bc
00000300: 6c11 173c 74c5 813e 39bc 23bd e1eb 6cbd
00000310: dae2 823e 62fb 373e a212 a43c 5a24 99bd
00000320: 2082 723d 9ecc 3abe 6e52 cf3d f057 613e
00000330: da57 b63e ba78 93be 9c7c c83d 061d 483e
00000340: dba9 673e db3e fe3d aec8 f23e 1deb b73e
00000350: 0a20 503e 2145 9abc 1ac8 04be 1b0a b03e
00000360: d700 0b3e 0441 a2bd a16a 103e df88 5abd
00000370: 6c49 00bc 3b73 aa3e e51e b63e 39bd 24be
00000380: 5f5e 153e 65ff 97bb 6148 dab9 a20b aebd
00000390: ed98 15be 4bc1 81be 549d d43d 39c9 90bd
000003a0: dc02 81bc 60f6 bd3c 0747 733c add5 893d
000003b0: ec2b 1d3e 42bb 753e 99ca c13e 1f84 05be
000003c0: 245f 8d3e 0797 bbbd b9c2 813e 792a 813e
000003d0: 15c3 613e 1a71 aabe 62cd 873e 63d8 ff3d
000003e0: 806c 553e 13c9 983e 25da 4d3e 38d0 f63b
000003f0: 0131 033d 30fa 33bc 6562 4a3e 361e 953e

layer3.bias f4 [32]
0.0742593 0.14469832 -0.0141417 0.3223423 -0.04972888 -0.25629017 -0.27506992 0.09462749
-0.06347533 -0.056883004 -0.0652616 -0.024293616 0.19476853 -0.12520404 -0.026289536 -0.055852223
-0.18587403 0.23544522 -0.07921381 -0.1590718 0.1607975 0.076808155 -0.055914108 -0.12072486
0.06457879 -0.10634189 0.049360737 -0.12644601 -0.2998654 -0.02913064 -0.23778965 -0.12137724
00000000: 4315 983d cc2b 143e 97b2 67bc 0d0a a53e
00000010: 83b0 4bbd 7738 83be f7d5 8cbe 0fcc c13d
00000020: 5bff 81bd 27fe 68bd e0a7 85bd 6803 c7bc
00000030: 6771 473e 7d35 00be 275d d7bc 4dc5 64bd
00000040: c355 3ebe 8d18 713e da3a a2bd b8e3 22be
00000050: 1aa8 243e 984d 9d3d 3106 65bd 983e f7bd
00000060: e241 843d c7c9 d9bd 7c2e 4a3d 107b 01be
00000070: f587 99be 61a3 eebc 217f 73be a194 f8bd

output.weight f4 [3, 32]
-0.039846376 -0.018439893 -0.53549284 0.27994815 0.04423602 0.32429126 0.39345518 -0.38934705
-0.26175046 -0.07738293 -0.013027191 0.047294777 0.270663 -0.124061875 -0.37127817 -0.09273197
0.46863562 -0.0039560325 -0.06758687 -0.2625529 -0.30893552 0.19894601 0.22134571 -0.001467137
0.09568605 -0.108601 0.081837796 -0.3997312 0.27668494 -0.4186358 -0.06326371 -0.40030208
0.088992156 -0.0026995814 0.19759665 -0.1520192 0.0057533323 -0.38284275 -0.45004073 0.016074356
0.027298868 0.0012560713 -0.014884968 0.05072207 0.0011658825 -0.115570016 0.14907381 -0.104882985
-0.52528167 -0.49928814 0.07365814 -0.08120256 -0.061727412 0.21989454 -0.20963491 -0.032961335
0.1546487 -0.079075485 0.16941664 0.15440962 -0.11001952 0.15556362 0.0008867874 0.22491375
-0.94414 0.22479019 0.054726023 -0.007099574 -0.0057875845 -0.6305018 -0.52208674 0.081577316
0.12433174 -0.008668461 -0.062414065 0.03882501 -0.28673935 0.123247996 0.32773602 0.07914847
-0.48783 0.26657102 -0.4976902 0.10360379 0.35035065 -0.9304416 -0.18439886 -0.11541237
-0.9352648 -0.08965571 -1.0127395 0.09114681 -0.20101163 0.15283176 -0.019179981 -0.022268439
00000000: f435 23bd 420f 97bc 0f16 09bf 5d55 8f3e
00000010: d430 353d 8109 a63e f572 c93e 7f58 c7be
00000020: 2804 86be f17a 9ebd 0070 55bc 2bb8 413d
00000030: 5794 8a3e 2714 febd 2c18 bebe 42ea bdbd
00000040: 02f1 ef3e 9ba1 81bb fc6a 8abd 556d 86be
00000050: cc2c 9ebe 81b8 4b3e 73a8 623e f34c c0ba
00000060: 0cf7 c33d 336a debd 939a a73d 91a9 ccbe
00000070: a6a9 8d3e 6e57 d6be 6790 81bd 65f4 ccbe
00000080: 8541 b63d 76eb 30bb c756 4a3e ecaa 1bbe
00000090: 7386 bc3b f703 c4be bd6b e6be 5eae 833c
000000a0: e0a1 df3c c2a2 a43a 15e0 73bc f2c1 4f3d
000000b0: 86d0 983a f9af ecbd cea6 183e e4cc d6bd
000000c0: dc78 06bf b2a2 ffbe 14da 963d 874d a6bd
000000d0: e2d5 7cbd 092c 613e 89aa 56be 7702 07bd
000000e0: 3b5c 1e3e 54f2 a1bd 8e7b 2d3e 8e1d 1e3e
000000f0: ea51 e1bd 124c 1f3e 4c77 683a ca4f 663e
00000100: 29b3 71bf 662f 663e 6528 603d 8ba3 e8bb
00000110: c7a5 bdbb 9168 21bf 7aa7 05bf 0212 a73d
00000120: a4a1 fe3d 2906 0ebc e4a5 7fbd f906 1f3d
00000130: 80cf 92be 7269 fc3d 04cd a73e 9818 a23d
00000140: dbc4 f9be ff7b 883e 40d1 febe 392e d43d
00000150: 2961 b33e 6c31 6ebf 0ed3 3cbe 525d ecbd
00000160: 846d 6fbf 6a9d b7bd 73a1 81bf 2eab ba3d
00000170: fed5 4dbe ee7f 1c3e 561f 9dbc 4d6c b6bc

output.bias f4 [3]
0.39598376 -0.16613063 -0.1113256
00000000: 62be ca3e 261e 2abe adfe e3bd
